xarm_final/models/final_model.tflite (tflite, 147864 bytes, 3 tensors)

arith.constant f4 [16, 3, 3, 3]
0	0x3df9e3d0	0.12201655
1	0xbe290f1a	-0.16509667
2	0x3d0c57e8	0.03426352
3	0xbdbe81e6	-0.0930212
4	0x3da0b36c	0.07846722
5	0xbe1a6c72	-0.15080431
6	0xbd94c954	-0.07264963
7	0xbe1a67c3	-0.15078644
8	0xbe0b3cd4	-0.13597423
9	0x3da2d0f4	0.07950011
10	0x3e203d02	0.15648273
11	0xbdedc2b3	-0.116094016
12	0xbd81abab	-0.06331571
13	0x3cb0e000	0.021591187
14	0xbddd2675	-0.10798351
15	0x3dccf5ac	0.10007796
16	0xbe36f780	-0.17867851
17	0xbe000d98	-0.12505186
18	0xbd6b1c48	-0.057400018
19	0x3e305b3e	0.17222306
20	0x3d86e0c4	0.065858394
21	0xbe22f5ef	-0.15914129
22	0x3e1a475c	0.15066284
23	0xbdb58628	-0.08863479
24	0x3df65c0c	0.12029275
25	0x3df8a564	0.12140921
26	0x3d942968	0.0723446
27	0xbe303bf3	-0.17210369
28	0xbe3862fa	-0.18006507
29	0x3a61ac00	0.0008608699
30	0x3b025bc0	0.0019891113
31	0x3d16b7e0	0.03679645
32	0xbdb96953	-0.09053292
33	0x3d7ecec4	0.062208906
34	0xbe24bbfa	-0.16087332
35	0xbd74fa64	-0.059809104
36	0x3d7fdce0	0.062466502
37	0x3d3492b0	0.044085205
38	0xbdb5c9eb	-0.088764034
39	0xbd9449e2	-0.072406545
40	0xbb096980	-0.0020967424
41	0x3dff997c	0.12480447
42	0xbded528b	-0.115880094
43	0x3d652200	0.055940628
44	0xbe2bd5b1	-0.16780736
45	0x3e3e0e9a	0.18560258
46	0x3ddf5324	0.1090453
47	0xbc5bd020	-0.01341632
48	0xbdd3edad	-0.103480674
49	0xbdb8ad60	-0.09017444
50	0xbe32f6c8	-0.17476952
51	0x3d8a8d30	0.06765211
52	0x3d28c1fc	0.041200623
53	0xbdc3b445	-0.09555868
54	0x3c23d150	0.009998634
55	0xbdb14dfe	-0.08657454
56	0x3dbb3a8c	0.09142026
57	0x3d8c88b8	0.068620145
58	0x3de15c3c	0.110039204
59	0xbd83ea08	-0.06441122
60	0x3de870f4	0.11349669
61	0xbd0faae0	-0.03507507
62	0x3e39e896	0.1815513
63	0xbdd7b430	-0.10532415
64	0xbc1e5440	-0.009663641
65	0xbe0b500d	-0.13604756
66	0x3dacdbbc	0.084403485
67	0xbe075629	-0.13216461
68	0xbd0fd820	-0.035118222
69	0xbe022232	-0.12708357
70	0x3e179b06	0.1480523
71	0x3dafc9bc	0.085834
72	0x3e11e822	0.14248708
73	0x3dd1e74c	0.102491945
74	0x3d51c84c	0.05121641
75	0x3e2ac23a	0.16675654
76	0xbd4d84f0	-0.050175607
77	0x3e2d1de4	0.16905934
78	0x3e31089a	0.17288437
79	0x3e0b6c08	0.1361543
80	0x3d971ecc	0.07378921
81	0xbe3ef87e	-0.1864948
82	0x3da2cd58	0.079493225
83	0xbe3e3c55	-0.18577702
84	0xbd56725c	-0.052355155
85	0xbdd7ee05	-0.105434455
86	0x3d91f3d4	0.07126585
87	0xbe126255	-0.14295323
88	0x3e369ce0	0.1783328
89	0x3ddc9e3c	0.10772368
90	0x3dddd804	0.10832217
91	0xbd9d82f2	-0.076909915
92	0xbb6f6bc0	-0.003653273
93	0xbc37bf10	-0.011214986
94	0xbded087b	-0.11573883
95	0xbdc828de	-0.0977342
96	0x3e0e4572	0.13893679
97	0xbe25dc6f	-0.1619737
98	0x3ce869d8	0.028370783
99	0x3e00245c	0.1251387
100	0xbd9bb5cb	-0.07603034
101	0xbdeef8c1	-0.1166854
102	0xbdc5b866	-0.09654312
103	0x3ceab858	0.028652355
104	0x3e19aa30	0.15006328
105	0xbd887114	-0.06662193
106	0x3e23421c	0.15943187
107	0x3e278d6a	0.16362539
108	0x3e1f02fe	0.15528485
109	0xbe137e12	-0.14403561
110	0x3d228390	0.03967625
111	0xbe05a312	-0.13050488
112	0x3d884c58	0.066551864
113	0x3d9a469c	0.07532999
114	0xbe2c151f	-0.16804932
115	0x3d98dee4	0.07464388
116	0xbcb772c0	-0.022393584
117	0x3e147270	0.1449678
118	0xbe3c7f92	-0.18408039
119	0x3decd648	0.115643084
120	0x3d80181e	0.062546
121	0xbd785ce0	-0.060635448
122	0xbe2d6ceb	-0.1693608
123	0x3ce5b520	0.028040469
124	0xbc9c2788	-0.019061819
125	0xbd93b7d3	-0.07212796
126	0x3e21c0ee	0.15796253
127	0x3c33bcf0	0.010970339
128	0x3c8087c0	0.01568973
129	0x3b938560	0.0045019835
130	0x3e05b6c6	0.13058004
131	0xbd85c655	-0.065319695
132	0xbdf0f8ab	-0.1176618
133	0x3d67dbfc	0.056606278
134	0x3dd10e50	0.10207808
135	0xbd116b8c	-0.035502955
136	0xbd67fbec	-0.056636736
137	0xbd010f78	-0.031508893
138	0x3dbfbd68	0.09362298
139	0xbdc34a0a	-0.09535606
140	0x3d14e9d0	0.036355793
141	0xbcfbdf10	-0.030746013
142	0xbd61cb68	-0.055125624
143	0x3e30c9b6	0.17264447
144	0xbc5910f0	-0.013248667
145	0x3e13e25e	0.14441821
146	0xbde5437a	-0.11194511
147	0xbe382571	-0.17983033
148	0x3c9f42e8	0.019441083
149	0x3d3fa400	0.046787262
150	0x3cf9e9d0	0.030506998
151	0x3e0be9a4	0.13663346
152	0xbd06d49c	-0.032917604
153	0xbe2ee887	-0.1708089
154	0x3e222c56	0.15837225
155	0x3c817788	0.015804067
156	0x3d687960	0.056756377
157	0xbe364fc8	-0.17803872
158	0xbca20a98	-0.019780442
159	0x3e139508	0.1441232
160	0x3d477aec	0.04870121
161	0x3d044b98	0.032298654
162	0x3e2b400c	0.1672365
163	0x3e27a2e6	0.16370735
164	0xbe304b7c	-0.17216295
165	0xbe20c6af	-0.15700792
166	0x3e1ba4b6	0.15199551
167	0x3d358220	0.04431355
168	0x3e1f45b6	0.15553936
169	0xbd265d50	-0.040616333
170	0xbd4c3068	-0.04985085
171	0x3dfb5274	0.12271586
172	0xbe028363	-0.12745433
173	0xbdba1046	-0.09085135
174	0xbdf5cc8b	-0.12001904
175	0x3e12ea86	0.14347276
176	0x3dff18e4	0.124559194
177	0xbdbfed87	-0.093714766
178	0xbe081a9c	-0.132914
179	0x3e3e95fa	0.18611899
180	0x3e17a10c	0.14807528
181	0x3de476f8	0.11155504
182	0x3e2327d8	0.15933168
183	0x3def5018	0.116851985
184	0x3e027656	0.12740454
185	0xbe382e60	-0.1798644
186	0xbd1e7fb4	-0.038696006
187	0xbe0c20b3	-0.13684349
188	0xbbc17be0	-0.0059046596
189	0x3e1f81d8	0.15576875
190	0xbdaf75be	-0.085673794
191	0x3e235130	0.1594894
192	0xbe273310	-0.16328073
193	0xbdf55365	-0.11978797
194	0x3d16f10c	0.036850974
195	0xbc0099c0	-0.007849157
196	0x3d4f50e8	0.050614268
197	0x3ccda430	0.025102705
198	0xbdd94536	-0.10608904
199	0x3e13c10a	0.14429107
200	0xbdb80a15	-0.08986298
201	0xbd519bf4	-0.05117412
202	0xbe1780b2	-0.14795187
203	0x3d83431c	0.064092845
204	0x3e053196	0.13007197
205	0xbc689560	-0.01419577
206	0x3cbd9a18	0.023144767
207	0x3d90a278	0.070622385
208	0xbe09d1d2	-0.13458946
209	0xbe1c798a	-0.15280738
210	0x3df082a4	0.11743668
211	0xbd6a7b9c	-0.05724679
212	0xbdcfc832	-0.10145606
213	0xbd0455dc	-0.032308444
214	0x3d017260	0.031603217
215	0xbd9b3013	-0.07577529
216	0x3d85c3c0	0.06531477
217	0xbe143d08	-0.14476407
218	0x3d65c3fc	0.05609511
219	0x3dc11594	0.09427944
220	0x3e3c6fc0	0.18402004
221	0x3e170b5a	0.14750424
222	0x3e05538e	0.13020155
223	0x3c116a50	0.0088754445
224	0x3dc5ff34	0.09667817
225	0x3e3f3f70	0.18676543
226	0xbe1e8036	-0.15478596
227	0x3e374a0c	0.1789934
228	0x3e0392de	0.12848994
229	0x3d3271f8	0.04356572
230	0x3d75aa60	0.059976935
231	0x3dec4f40	0.11538553
232	0x3d3d3ed4	0.046202496
233	0x3d4adc30	0.049526393
234	0xbe02b232	-0.12763289
235	0xbdd05096	-0.101716205
236	0x3d8fbf94	0.070189625
237	0x3d39c39c	0.045352563
238	0xbe3eb42b	-0.18623416
239	0xbd7c7c50	-0.06164199
240	0x3e1ea334	0.15491945
241	0x3d663d44	0.05621077
242	0xbd3c0b58	-0.045909256
243	0xbd376a30	-0.044779003
244	0x3dfc8800	0.123306274
245	0x3c8fc148	0.017548218
246	0x3cf063c8	0.029344454
247	0x3d383230	0.044969738
248	0xbe383f4e	-0.17992899
249	0x3db5cd88	0.088770926
250	0xbda853a2	-0.08219077
251	0xbdb33a67	-0.08751374
252	0x3d9eb600	0.077495575
253	0xbd1380b4	-0.036011413
254	0xbca8ddb8	-0.020613536
255	0x3d455d10	0.048184454

arith.constant1 f4 [16]
0	0x00000000	0.0
1	0x00000000	0.0
2	0x00000000	0.0
3	0x00000000	0.0
4	0x00000000	0.0
5	0x00000000	0.0
6	0x00000000	0.0
7	0x00000000	0.0
8	0x00000000	0.0
9	0x00000000	0.0
10	0x00000000	0.0
11	0x00000000	0.0
12	0x00000000	0.0
13	0x00000000	0.0
14	0x00000000	0.0
15	0x00000000	0.0

tfl.pseudo_qconst i1 [10, 14400]
0	0x78	120
1	0xcd	-51
2	0x05	5
3	0x34	52
4	0x03	3
5	0x33	51
6	0x2d	45
7	0xef	-17
8	0x5a	90
9	0x48	72
10	0x23	35
11	0xae	-82
12	0x83	-125
13	0xab	-85
14	0x05	5
15	0x0f	15
16	0xfd	-3
17	0xf4	-12
18	0x86	-122
19	0x1a	26
20	0x10	16
21	0x9f	-97
22	0x74	116
23	0xf6	-10
24	0x18	24
25	0xb9	-71
26	0xe5	-27
27	0xeb	-21
28	0xaf	-81
29	0xe7	-25
30	0x31	49
31	0xb3	-77
32	0x53	83
33	0x2e	46
34	0xc1	-63
35	0xb0	-80
36	0x3a	58
37	0x8d	-115
38	0xe9	-23
39	0xb3	-77
40	0x56	86
41	0x02	2
42	0x83	-125
43	0x3f	63
44	0x18	24
45	0x15	21
46	0xa8	-88
47	0xe7	-25
48	0x89	-119
49	0xf0	-16
50	0xb4	-76
51	0x64	100
52	0x30	48
53	0x36	54
54	0x03	3
55	0x2f	47
56	0x0a	10
57	0x89	-119
58	0xe4	-28
59	0x83	-125
60	0xf5	-11
61	0xc0	-64
62	0xff	-1
63	0x7d	125
64	0xf9	-7
65	0x63	99
66	0x40	64
67	0x62	98
68	0x7b	123
69	0x6e	110
70	0xe4	-28
71	0x4c	76
72	0x33	51
73	0x32	50
74	0xc0	-64
75	0x84	-124
76	0x2e	46
77	0xa5	-91
78	0x0f	15
79	0x85	-123
80	0x02	2
81	0x59	89
82	0x60	96
83	0x5a	90
84	0x27	39
85	0x67	103
86	0x6c	108
87	0x2c	44
88	0xd8	-40
89	0x7d	125
90	0x02	2
91	0x31	49
92	0x1b	27
93	0xc1	-63
94	0xdb	-37
95	0x8f	-113
96	0x01	1
97	0xf3	-13
98	0x21	33
99	0xfc	-4
100	0x21	33
101	0x92	-110
102	0x08	8
103	0x83	-125
104	0xbf	-65
105	0x8d	-115
106	0xa3	-93
107	0x6a	106
108	0x45	69
109	0x9c	-100
110	0x91	-111
111	0xd3	-45
112	0xc6	-58
113	0xe2	-30
114	0x38	56
115	0x1d	29
116	0x09	9
117	0x72	114
118	0xde	-34
119	0xeb	-21
120	0x6c	108
121	0xb9	-71
122	0x0d	13
123	0x4b	75
124	0x42	66
125	0x75	117
126	0x13	19
127	0x5d	93
128	0x62	98
129	0x2a	42
130	0x56	86
131	0xdd	-35
132	0xf9	-7
133	0xe8	-24
134	0x71	113
135	0x37	55
136	0x20	32
137	0x8f	-113
138	0xf5	-11
139	0x33	51
140	0xb4	-76
141	0xde	-34
142	0xbd	-67
143	0x6c	108
144	0x53	83
145	0xdf	-33
146	0x4c	76
147	0xc4	-60
148	0xd5	-43
149	0xea	-22
150	0xc0	-64
151	0x76	118
152	0x93	-109
153	0x81	-127
154	0xd1	-47
155	0x48	72
156	0x72	114
157	0x0f	15
158	0x9b	-101
159	0x63	99
160	0x47	71
161	0x42	66
162	0x59	89
163	0xdd	-35
164	0xcb	-53
165	0x49	73
166	0xfc	-4
167	0x49	73
168	0x15	21
169	0xc7	-57
170	0x34	52
171	0x72	114
172	0xbd	-67
173	0xfd	-3
174	0xca	-54
175	0x13	19
176	0x57	87
177	0x9d	-99
178	0xa9	-87
179	0xb2	-78
180	0xf3	-13
181	0xd3	-45
182	0xd1	-47
183	0xd7	-41
184	0x0a	10
185	0xde	-34
186	0x3a	58
187	0x8e	-114
188	0x5d	93
189	0x43	67
190	0xb5	-75
191	0x44	68
192	0x17	23
193	0x24	36
194	0x74	116
195	0xe4	-28
196	0xb5	-75
197	0x24	36
198	0xb6	-74
199	0x18	24
200	0xa9	-87
201	0x22	34
202	0xba	-70
203	0x9d	-99
204	0x78	120
205	0x2c	44
206	0x62	98
207	0x12	18
208	0x97	-105
209	0xbe	-66
210	0x70	112
211	0x18	24
212	0x20	32
213	0x62	98
214	0x16	22
215	0xaf	-81
216	0xd3	-45
217	0x3d	61
218	0x0b	11
219	0x1b	27
220	0x53	83
221	0x4a	74
222	0x95	-107
223	0x16	22
224	0x57	87
225	0xd4	-44
226	0x45	69
227	0xa8	-88
228	0xd4	-44
229	0xfd	-3
230	0x19	25
231	0x6a	106
232	0x9d	-99
233	0x9e	-98
234	0xfe	-2
235	0x25	37
236	0x79	121
237	0xb4	-76
238	0x2f	47
239	0x90	-112
240	0x90	-112
241	0x5b	91
242	0x6f	111
243	0xa8	-88
244	0x5d	93
245	0xe4	-28
246	0xd9	-39
247	0xf0	-16
248	0xf6	-10
249	0xe2	-30
250	0x43	67
251	0xbe	-66
252	0xe3	-29
253	0x47	71
254	0xc2	-62
255	0x06	6
